model/model.pth (torch, 360229 bytes, 10 tensors)

lstm.weight_ih_l0 f4 [256, 1]
0	0x3f3f980c	0.7484138
1	0xbd865ea2	-0.065610185
2	0x3d32540c	0.043537185
3	0x3ea01110	0.31263018
4	0xbeeaf361	-0.45888808
5	0x3eaecb1a	0.3413933
6	0xbe802504	-0.2502824
7	0x3fd2a604	1.6456914
8	0x3d939300	0.072057724
9	0x3eaad895	0.33368364
10	0x3eb9a27e	0.36256784
11	0x3f098f21	0.5373402
12	0x3e02be1e	0.12767836
13	0xbd7b8438	-0.06140539
14	0xbf017ff5	-0.5058587
15	0x3d360deb	0.044446867
16	0x3cb95abb	0.022626271
17	0x3e082497	0.13295208
18	0x3debc93d	0.115129925
19	0x3ebcd50c	0.36881292
20	0x3dc8bc35	0.09801523
21	0xbd96096b	-0.07326015
22	0xbe8189a6	-0.2530033
23	0xbd8db716	-0.069196865
24	0xbd427014	-0.047470167
25	0x3f074148	0.52833986
26	0x3eaa600f	0.33276412
27	0x3faee90b	1.3664869
28	0x3e5db5d2	0.2165139
29	0x3e26cb23	0.16288428
30	0x3e6ba9b1	0.23013951
31	0x3db4829f	0.088139765
32	0x3e805577	0.25065205
33	0xbebea140	-0.372324
34	0xbe641912	-0.22275189
35	0xbe569020	-0.20953417
36	0x4009affc	2.1513662
37	0xbe94c38a	-0.29055434
38	0x3c70124f	0.014652803
39	0x3ca5ceea	0.020240266
40	0x3dcf044a	0.1010824
41	0xbe69bec3	-0.22826676
42	0x3df24cf4	0.11831084
43	0x3d15fbfa	0.036617257
44	0x3dfb146b	0.12259754
45	0xbda67aad	-0.08128867
46	0xbda75ec7	-0.08172374
47	0x3cb9e4fb	0.022692194
48	0x3f08e6f8	0.5347743
49	0xbe1389be	-0.14408013
50	0xbeb15bbb	-0.34640297
51	0xbe64be5a	-0.22338238
52	0x3d1757e7	0.036949065
53	0x3dd1fd22	0.102533594
54	0x3d1ed64b	0.038778584
55	0x3ea0032d	0.31252423
56	0x3d7e49d7	0.062082138
57	0xbeb05cb4	-0.34445727
58	0x3d238d9f	0.039929982
59	0x3e0f70ba	0.14007846
60	0xbd31af3d	-0.04338001
61	0x3ce88791	0.028384956
62	0x3eb2c931	0.34919122
63	0x3e76d566	0.24104843
64	0xbe9b56fa	-0.30339795
65	0x3ddae201	0.10687638
66	0x3e419af1	0.18906762
67	0x3d07aaab	0.033121746
68	0xbea7d929	-0.32782868
69	0xbe9d5519	-0.30728987
70	0x3eb0ccc0	0.34531212
71	0xbe256721	-0.16152622
72	0x3f0a6c04	0.5407107
73	0x3d4e8de1	0.050428275
74	0x3f051750	0.519887
75	0x3e852724	0.26006424
76	0x3dfb4921	0.122698076
77	0x3d846d37	0.064661436
78	0xbf273561	-0.65315825
79	0x3f0bc100	0.5459137
80	0xbcb747bf	-0.022373078
81	0xbd749e55	-0.05972131
82	0x3dab2e22	0.083584085
83	0x3da5c6b7	0.080945425
84	0x3f0f0389	0.5586477
85	0xbebecc89	-0.37265423
86	0xbeceacc4	-0.40366185
87	0x3f224bb4	0.63396764
88	0x3dfcf0d6	0.12350623
89	0x3e41a502	0.18910602
90	0x3f28d2f1	0.6594687
91	0xbefea43b	-0.49734673
92	0x3ee9f348	0.4569342
93	0x3eac3c55	0.3363978
94	0xbdca7026	-0.09884672
95	0x3cb0bd85	0.021574745
96	0x3d8909ff	0.0669136
97	0xbed0bed1	-0.4077058
98	0xbea4b7e7	-0.32171556
99	0xbec4b1ce	-0.38416904
100	0x3e537c88	0.20652974
101	0xbf1aafb6	-0.60424364
102	0x3e65a32c	0.22425526
103	0x3e7517f5	0.2393492
104	0xbeb89940	-0.3605442
105	0xbecd87f9	-0.401428
106	0x3e01b57d	0.12666889
107	0xbe2cac4d	-0.16862603
108	0x3dd06e25	0.101772584
109	0x3ed203ab	0.41018423
110	0x3ee34dbe	0.4439525
111	0x3efdc990	0.49567842
112	0x3dcd6c84	0.10030463
113	0xbea8bee7	-0.32958147
114	0x3e68730c	0.22700137
115	0xbf0c9395	-0.5491269
116	0x3f4a81b2	0.7910415
117	0x3f8ad3d8	1.08459
118	0x3cbf1e8e	0.02333
119	0x3eac6ba3	0.3367587
120	0x3f4a6be9	0.7907091
121	0x3e95fe84	0.29295743
122	0x3ed93f06	0.42430896
123	0xbe7f0281	-0.24903299
124	0x3e81fc94	0.25388014
125	0x3e23909e	0.15973136
126	0xbdb7b457	-0.08969944
127	0xbe9890c7	-0.29797956
128	0x3feadb0d	1.8348099
129	0x3e147ab1	0.14499928
130	0xbdaa42fe	-0.08313559
131	0xbec1bb0b	-0.37838015
132	0x3f058298	0.52152395
133	0x3e405749	0.18783297
134	0x3ed962a6	0.42458075
135	0x3ef95504	0.48697674
136	0x3d821900	0.063524246
137	0x3ea17227	0.31532404
138	0xbe31cd97	-0.17363583
139	0xbffbe8c6	-1.9680412
140	0xbdb3f273	-0.08786478
141	0x3da25b9b	0.079276286
142	0xbe1ea2b6	-0.15491757
143	0x3d32f59b	0.04369126
144	0x3ddfe9b8	0.1093325
145	0x3cd9f648	0.026606694
146	0x3dc7125a	0.09720297
147	0x3ed1926f	0.40932032
148	0x3f5ed876	0.87049043
149	0x3e3204f6	0.17384705
150	0xbefee73f	-0.49785802
151	0x3e29192d	0.1651351
152	0xbe03ac45	-0.12858684
153	0x3ed4b931	0.4154754
154	0xbe070077	-0.13183771
155	0xbee2a385	-0.4426538
156	0xbe5a1abc	-0.21299261
157	0xbe06cf24	-0.13164955
158	0x3e416dd7	0.18889557
159	0xbe5448b3	-0.20730858
160	0xbe7a3bc4	-0.24436861
161	0x3ebb07c3	0.3652936
162	0xbc06801b	-0.008209254
163	0x3e4dd356	0.2010015
164	0xbf417dea	-0.75582755
165	0x3f4ab3fb	0.7918088
166	0xbe573378	-0.21015728
167	0xbdbaf543	-0.09128811
168	0xbda10e7a	-0.07864089
169	0xbe554d00	-0.20830154
170	0xbe1d0533	-0.15334015
171	0x3d14006a	0.036133207
172	0x3e303a26	0.17209682
173	0x3cada996	0.021199029
174	0x3e7258f2	0.23666742
175	0x4026690c	2.6001616
176	0x4027dcff	2.6228635
177	0x3eb0903e	0.34485048
178	0xbf0a811c	-0.54103255
179	0x3ee425e8	0.4456017
180	0xbd3f57b0	-0.046714485
181	0xbd9ec0ef	-0.07751643
182	0xbeeba315	-0.4602286
183	0x3dbf1201	0.09329606
184	0xbf2119ec	-0.6293018
185	0x3ec3ec92	0.38266426
186	0xbdd1e55c	-0.10248825
187	0xbf814656	-1.009959
188	0xbce42f2f	-0.02785453
189	0xbd6a08e3	-0.05713738
190	0x3eb13ab0	0.34615088
191	0xbdef6966	-0.11690025
192	0xbf6d444b	-0.9268233
193	0x3eee5072	0.4654575
194	0x3f8fc5d5	1.1232249
195	0xbeb62edc	-0.35582626
196	0x3f362b1b	0.71159524
197	0x3e4ffc85	0.20311172
198	0x401ba660	2.4320297
199	0xbebf440c	-0.37356603
200	0x3e893871	0.26800874
201	0xbe991bef	-0.29904124
202	0x3f1ce72e	0.6129025
203	0xbec20409	-0.37893704
204	0x3e5a4eb7	0.2131909
205	0x3e976627	0.29570124
206	0x3ed00dbd	0.4063548
207	0x3e06ccae	0.13164017
208	0x3e63f233	0.2226036
209	0x3efb76bb	0.49114022
210	0x3e66a1ed	0.22522707
211	0x3f8ff366	1.1246154
212	0xbf123e0f	-0.57125944
213	0x3f0ad5f3	0.5423271
214	0x3f4419d7	0.7660193
215	0x3f802210	1.0010395
216	0x3f035ce5	0.5131362
217	0xbe88cb25	-0.26717487
218	0xbe23c4d0	-0.15993047
219	0x40102dc8	2.2527943
220	0xbf1d2ba2	-0.61394703
221	0x3f06d6b4	0.5267136
222	0xbe6f57b5	-0.23373301
223	0xbe3ef0bd	-0.18646522
224	0x3e2f1718	0.17098653
225	0x3f8bc121	1.0918313
226	0x3f6f7589	0.9353872
227	0x3f1a81cc	0.60354304
228	0x3f4f5e92	0.8100368
229	0x3f0aa9ed	0.54165536
230	0x3c8fc0c3	0.01754797
231	0xbe8936d9	-0.26799658
232	0x3f9cecd7	1.2259778
233	0x3e4b60ff	0.1986122
234	0xbf88b40b	-1.0679945
235	0x3eb0d304	0.34535992
236	0xbef1dbff	-0.47238156
237	0x3fb5269b	1.4152406
238	0x3f8be9d3	1.0930732
239	0xbf21adbf	-0.6315574
240	0xbf2f8945	-0.6856883
241	0x3f01a806	0.5064701
242	0x3e5cc5f2	0.21559885
243	0x401ea598	2.478857
244	0xbd95dcd0	-0.07317507
245	0x3da132d5	0.078710236
246	0xbf21f89e	-0.63269985
247	0xbe9d9807	-0.3078005
248	0xbf16bb0e	-0.5887917
249	0x3f881981	1.0632783
250	0x3f967658	1.1754866
251	0xbeb9f1c3	-0.36317262
252	0x3e663642	0.22481635
253	0x3eaa4eb6	0.33263177
254	0x3d12d7ea	0.035850443
255	0xbd36e203	-0.044649135

lstm.weight_hh_l0 f4 [256, 64]
0	0x3dc2271f	0.09480118
1	0x3d98f1fa	0.07468028
2	0xbf3ad1b7	-0.7297625
3	0xbf351da4	-0.70748353
4	0xbf011c75	-0.50434047
5	0x3f463142	0.7741891
6	0x3e8bae8d	0.2728161
7	0xbe8714a1	-0.26382926
8	0x3ec015af	0.37516543
9	0x3e864534	0.26224673
10	0xbf339244	-0.7014506
11	0x3e00c76d	0.12576075
12	0xbeebc4c7	-0.46048567
13	0xbec431a9	-0.38319138
14	0xbf3a19b6	-0.7269548
15	0x3f109540	0.5647774
16	0x3f1f3279	0.6218639
17	0xbe8fc51e	-0.28080076
18	0x3eb1cc85	0.3472635
19	0x3f15f676	0.58579195
20	0x3f2045ff	0.62606806
21	0x3ed870c7	0.42273542
22	0xbf2c0078	-0.67188215
23	0x3f368678	0.71298933
24	0x3eecd904	0.4625932
25	0x3e55db5d	0.20884462
26	0xbf182c8e	-0.59442985
27	0xbcdf2fdb	-0.027244499
28	0x3f119dd8	0.56881475
29	0x3e0f89d2	0.14017418
30	0x3ea2f949	0.31830814
31	0xbe42f4f8	-0.1903876
32	0xbec3520a	-0.38148528
33	0xbf03a766	-0.51427305
34	0xbec80e54	-0.39073431
35	0x3e362b02	0.17789844
36	0xbeaba285	-0.3352243
37	0x3f57f179	0.84352833
38	0xbe02981b	-0.12753336
39	0xbf35b6bb	-0.7098195
40	0xbec8d726	-0.39226645
41	0xbe1992b9	-0.14997377
42	0xbf41696c	-0.75551486
43	0x3e7428c8	0.23843682
44	0x3ee2f603	0.44328317
45	0x3e4c5513	0.19954328
46	0x3ee68fa0	0.45031452
47	0x3f1cea76	0.6129526
48	0x3ef110cc	0.47083127
49	0x3d2ae223	0.041719567
50	0xbf48fbe6	-0.78509367
51	0xbea84643	-0.32866105
52	0x3e4f4bbd	0.20243736
53	0xbe8982fa	-0.2685774
54	0xbf30001e	-0.6875018
55	0x3f33b6eb	0.70200986
56	0xbf2c2f42	-0.6725961
57	0x3f40c9dd	0.7530802
58	0xbeeef1e8	-0.46668935
59	0xbede4c4c	-0.43417585
60	0xbf2a9f37	-0.6664919
61	0xbf328d9e	-0.6974734
62	0x3eb09514	0.34488738
63	0xbf3bf89a	-0.7342621
64	0x3e982649	0.2971671
65	0x3e3b9d82	0.18321803
66	0x3d20188b	0.039085906
67	0x3d53f6b1	0.051748935
68	0xbf21fbc5	-0.63274795
69	0xbe0b0c7b	-0.1357898
70	0xbf2867cb	-0.65783376
71	0xbf1e3717	-0.6180281
72	0xbe3f76e8	-0.18697703
73	0xbe214eca	-0.15752712
74	0x3c3a1756	0.011358103
75	0x3e3cfcda	0.1845583
76	0x3ef7a5d4	0.48368704
77	0x3e6d31ac	0.2316348
78	0xbecd67c9	-0.40118244
79	0xbe86a382	-0.26296622
80	0xbe9e6a7d	-0.3094062
81	0xbe171bdd	-0.14756723
82	0xbee34b76	-0.4439351
83	0xbd218a1e	-0.03943836
84	0xbcfada68	-0.030621722
85	0x3eb02347	0.34401914
86	0x3d7b54d8	0.06136021
87	0x3dd015cb	0.10160407
88	0xbc7e396d	-0.015516621
89	0xbf013061	-0.50464445
90	0xbe9365dc	-0.2878865
91	0xbdff5f7a	-0.124693826
92	0x3f85fe4d	1.0468231
93	0x3bd8de7a	0.006618318
94	0xbd5e7bf1	-0.05431742
95	0x3e2d4ced	0.16923876
96	0x3dd26d69	0.102747746
97	0xbf218195	-0.6308835
98	0xbf04574b	-0.516957
99	0x3e8e55e6	0.2779991
100	0x3ea2762e	0.3173079
101	0xbe865ee8	-0.26244283
102	0x3e73e07e	0.23816106
103	0xbe9e9ab3	-0.309774
104	0xbe0a6f68	-0.1351906
105	0xbe769e50	-0.24083829
106	0xbd82cd80	-0.06386852
107	0xbea8b576	-0.32950944
108	0x3dc81c20	0.097709894
109	0xbe7d4e1d	-0.24736829
110	0xbd88a253	-0.06671586
111	0xbf585525	-0.8450492
112	0x3df06ad8	0.11739129
113	0x3c925c76	0.017866354
114	0x3d1819bb	0.037133913
115	0xbd589a5f	-0.052881595
116	0x3ea3b201	0.31971744
117	0x3d972730	0.07380521
118	0x3ea79a0d	0.3273472
119	0x3ecee2e8	0.4040749
120	0x3f1f96f1	0.62339693
121	0x3d1f5243	0.03889681
122	0x3da3c4a4	0.079964906
123	0xbd8798aa	-0.06620915
124	0x3e0de09b	0.13855211
125	0xbdbebf79	-0.09313864
126	0xbe012412	-0.12611416
127	0xbdf8d07f	-0.121491425
128	0xbe156817	-0.14590488
129	0xbe8e3d19	-0.2778099
130	0xbd717ec8	-0.0589588
131	0xbe1ea505	-0.15492637
132	0x3df4799b	0.11937257
133	0xbd63f9a1	-0.055657987
134	0x3e64f9cf	0.2236092
135	0x3db96740	0.090528965
136	0x3e13fb5a	0.14451352
137	0x3bdb7d56	0.006698291
138	0x3e1921dd	0.14954324
139	0x3e7f890b	0.24954621
140	0xbdcc9520	-0.09989381
141	0xbd2cb121	-0.04216111
142	0xbeda43ff	-0.42630002
143	0x3eef540d	0.46743813
144	0xbe8e1efd	-0.27758017
145	0x3e7dffc8	0.24804604
146	0xbdc6e579	-0.09711737
147	0xbe24cddc	-0.16094154
148	0x3e49d1e5	0.19708975
149	0x3d208271	0.0391869
150	0xbea6ebe0	-0.32601833
151	0xbda79674	-0.081829935
152	0x3e3612c8	0.17780602
153	0xbcbbc7b2	-0.02292237
154	0xbe311397	-0.17292629
155	0x3e9f5a2c	0.31123483
156	0x3f3f8dc3	0.74825686
157	0x3c1e5563	0.0096639125
158	0x3bf7747a	0.007551727
159	0x3e660cfa	0.22465888
160	0x3dc92ca8	0.09822971
161	0x3d37f98a	0.044915713
162	0xbe5a1850	-0.21298337
163	0x3e95053d	0.2910556
164	0xbad61f50	-0.0016336236
165	0x3ed63f44	0.41845143
166	0x3e60603e	0.21911713
167	0x3d0ee065	0.034881968
168	0x3c47ef00	0.012202978
169	0xbe48952d	-0.19588156
170	0xbe1ca88f	-0.15298675
171	0x3ed11cdc	0.4084233
172	0xbb89c9c8	-0.0042049624
173	0xbe6c5950	-0.23080945
174	0xbb8302b5	-0.0039981254
175	0xbdb365d2	-0.08759655
176	0xbe731b5c	-0.23740906
177	0xbe19856d	-0.14992304
178	0xbe522483	-0.2052174
179	0xbeede6fb	-0.46465287
180	0x3d30aff5	0.043136556
181	0xbe3dfd3a	-0.1855363
182	0xbf589965	-0.8460906
183	0x3ecf6cfa	0.4051283
184	0xbf20612d	-0.6264828
185	0x3e91be10	0.2846532
186	0xbe12c81e	-0.14334151
187	0x3dd28e3f	0.102810375
188	0xbd9de6b2	-0.07710017
189	0xbdb36985	-0.08760361
190	0xbddc49f9	-0.10756297
191	0xba5025f3	-0.0007940225
192	0xbe6d55d7	-0.23177277
193	0xbe979b97	-0.29610893
194	0x3df6ef74	0.12057391
195	0x3e33a5bf	0.17543696
196	0x3e6a1a27	0.22861539
197	0x3db89577	0.09012883
198	0x3e239012	0.15972927
199	0x3e9dc4f6	0.30814332
200	0x3e1e2acd	0.15446015
201	0xbf1cce9a	-0.6125275
202	0xbd076463	-0.03305472
203	0xbe2f3869	-0.17111363
204	0xbeec01e2	-0.46095186
205	0xbad509ba	-0.0016253509
206	0x3e37c7d7	0.17947327
207	0x3e87e146	0.26539057
208	0x3ed3e2a9	0.41383865
209	0x3ec8c10b	0.3920978
210	0x3e165754	0.1468175
211	0x3c6ef800	0.014585495
212	0xbdf1f567	-0.11814385
213	0xbe4b256b	-0.19838493
214	0xbde886f4	-0.11353865
215	0xbdbaba72	-0.09117593
216	0x3e943163	0.2894393
217	0xbeeff9e4	-0.4687034
218	0x3d73ec92	0.059551783
219	0x3e5cbfab	0.2155749
220	0xbd53b937	-0.051690307
221	0xbe28fee3	-0.16503482
222	0x3dcf8a7d	0.101338364
223	0xbcb2e135	-0.021835903
224	0x3d97e50c	0.07416734
225	0x3d82d521	0.06388307
226	0x3eb72197	0.35767815
227	0xbece11b6	-0.40247887
228	0xbd35c4d2	-0.044377156
229	0xbed24557	-0.41068527
230	0xbee247c2	-0.44195372
231	0x3e2aa037	0.1666268
232	0xbb3147c3	-0.002705083
233	0x3e2367f1	0.15957619
234	0x3d6f3a9e	0.05840551
235	0x3ea2065f	0.31645486
236	0xbd819e06	-0.06328969
237	0xbea627a8	-0.3245213
238	0x3e6909b8	0.22757614
239	0x3f4d244b	0.80133504
240	0x3ee1e2d8	0.4411838
241	0x3cc82766	0.02443285
242	0xbd014bae	-0.031566314
243	0x3e931c7b	0.28732666
244	0x3f24efe1	0.64428526
245	0xbd8c8f63	-0.06863286
246	0xbd7de741	-0.06198812
247	0xbd14c40c	-0.036319777
248	0xbe246fed	-0.16058321
249	0xbd9aab8c	-0.07552251
250	0x3d9eaff8	0.07748407
251	0xbe1fbc88	-0.15599263
252	0xbd1b736b	-0.037951868
253	0xbf0cd6b3	-0.55015105
254	0xbe3d1297	-0.18464123
255	0xbdc20625	-0.09473828

lstm.bias_ih_l0 f4 [256]
0	0x3f6efeb8	0.9335742
1	0x3dcfcded	0.10146699
2	0xbca2b12f	-0.019859878
3	0x3ea0de13	0.3141943
4	0x3eb2164b	0.34782633
5	0xbde0e203	-0.10980608
6	0x3e522c12	0.20524624
7	0xbdcda276	-0.100407526
8	0x3dc73ea9	0.09728748
9	0xbcf31f79	-0.029678093
10	0xbe1dff90	-0.1542952
11	0x3f8536a4	1.04073
12	0xbe4d437b	-0.20045273
13	0x3dfc1527	0.12308722
14	0x3e84a36a	0.25905925
15	0xbee072c2	-0.43837553
16	0xbf371a08	-0.71524096
17	0x3e4dd939	0.20102395
18	0xbeded4af	-0.4352164
19	0xbe2cc4f9	-0.16872014
20	0xbcd3b728	-0.025844172
21	0x3ea26b70	0.31722593
22	0x3ef8e2eb	0.48610625
23	0x3f0b30da	0.54371417
24	0x3f1ddf9f	0.61669344
25	0x3e277149	0.16351809
26	0x3e35f852	0.17770508
27	0xbe63a1d1	-0.22229697
28	0x3ec110e9	0.37708214
29	0x3dea6d6b	0.11446651
30	0xbe402eaa	-0.18767801
31	0x3a98bf0e	0.0011653618
32	0xbdb21094	-0.08694568
33	0x3efe8573	0.4971119
34	0x3edad12e	0.42737716
35	0x3f333e94	0.7001736
36	0xbdc32bb2	-0.095298186
37	0x3f0fae7a	0.56125605
38	0xbeeb25d3	-0.45927295
39	0x3e89f7b5	0.26946798
40	0x3e3e0099	0.18554915
41	0x3f0d6038	0.55224943
42	0xbd33e89b	-0.043923
43	0xbd7fc8a4	-0.062447205
44	0x3eed6c33	0.46371612
45	0xbdf6a6ed	-0.12043557
46	0x3edeb7fe	0.4349975
47	0x3f18203d	0.5942419
48	0x3f1fbbc4	0.6239588
49	0x3dec157d	0.11527536
50	0x3ecf23ed	0.40457097
51	0x3f76012b	0.9609553
52	0x3bef0d9d	0.007295324
53	0xbe562899	-0.20913924
54	0x3ee049d3	0.43806323
55	0x3da7f500	0.08201027
56	0xbe1a0d60	-0.15044165
57	0x3e7dbd20	0.24779177
58	0xbd415cab	-0.047207516
59	0x3d896967	0.06709557
60	0x3da961bd	0.08270595
61	0xbee53af7	-0.4477155
62	0xbcafe143	-0.021469718
63	0xbd5f5fee	-0.054534845
64	0x3d0d206c	0.034454748
65	0x3eb56d76	0.35435075
66	0x3d865db6	0.06560843
67	0x3e872c6b	0.26401076
68	0x3de2dfe1	0.11077858
69	0x3e6865b4	0.22695047
70	0xbe025d7f	-0.12730978
71	0xbd040ea6	-0.032240532
72	0x3e29cd5b	0.16582243
73	0x3d0c93e2	0.03432072
74	0xbd7ab5df	-0.061208602
75	0xbec8232f	-0.39089343
76	0x3c3c8dd9	0.0115084285
77	0xbe4ac4b3	-0.19801597
78	0x3ed6a9e4	0.4192649
79	0xbd11db22	-0.035609372
80	0x3d7a1068	0.061050802
81	0xbd9a7773	-0.075423144
82	0x3a8f0962	0.001091283
83	0x3e4ce66d	0.20009775
84	0x3e27ba4f	0.16379665
85	0x3c0f3808	0.008741386
86	0x3f07d211	0.5305491
87	0x3ed12ec8	0.40856004
88	0x3ed9fdc1	0.4257641
89	0x3e24c7ec	0.16091889
90	0x3e13baa3	0.14426665
91	0x3dd048c7	0.10170131
92	0x3eab6bc1	0.33480647
93	0x3df59298	0.11990851
94	0xbdfe0058	-0.12402409
95	0x3eab46e8	0.33452535
96	0x3dfb3b0f	0.12267124
97	0x3e18acdf	0.14909695
98	0x3e93c91a	0.28864366
99	0x3ec6210d	0.3869709
100	0x3d9071e1	0.07052971
101	0x3d904da1	0.070460565
102	0xbc1bf322	-0.009518417
103	0x3cb5f605	0.022212038
104	0x3eac6fb8	0.33678985
105	0x3e6cdcec	0.2313115
106	0xbc67265d	-0.014108268
107	0x3df2423b	0.11829039
108	0x3e27f20e	0.1640093
109	0x3c23788a	0.009977469
110	0x3cd14223	0.025544232
111	0xbe62ad51	-0.22136427
112	0xbdec46dd	-0.115369536
113	0x3e3c8a11	0.18412043
114	0x3e2934ad	0.16524
115	0x3d88ea8f	0.066853635
116	0x3de2023c	0.110355824
117	0x3caa3d1f	0.020781098
118	0x3a979305	0.0011564201
119	0x3ce3e898	0.02782087
120	0xbbb1a441	-0.005421192
121	0x3bf75453	0.007547894
122	0x3e001953	0.1250966
123	0x3c3214ce	0.010869218
124	0x3e02123f	0.12702273
125	0xbd1fa694	-0.03897722
126	0xbd1dc691	-0.038519446
127	0x3dd9bbb7	0.10631507
128	0xbcf1613c	-0.02946531
129	0xbe843772	-0.2582355
130	0xbdc7e979	-0.09761328
131	0xbe9b050d	-0.3027729
132	0xbe2b906e	-0.16754314
133	0xbe1ce1ea	-0.15320554
134	0x3dd315a9	0.10306866
135	0xbe98b733	-0.2982727
136	0xbee33a04	-0.443802
137	0x3d1c12ff	0.038104054
138	0x3dc464f5	0.095895685
139	0x3e9506e8	0.29106832
140	0x3e5795cc	0.21053237
141	0xbcd5ac5f	-0.02608317
142	0xbdf8c55f	-0.121470205
143	0xbe66ba91	-0.22532107
144	0xbe856018	-0.26049876
145	0x3ddaacd7	0.10677498
146	0xbe5dc38d	-0.21656628
147	0xbde193ae	-0.11014496
148	0xbd5bf9a1	-0.05370486
149	0x3c32332a	0.010876456
150	0xbe7b67e4	-0.2455135
151	0x3eca43cf	0.3950486
152	0x3d849b61	0.06474949
153	0xbdbd461b	-0.09241887
154	0xbe784450	-0.24244809
155	0x3f0fc7ab	0.56164044
156	0x3eb6a7bb	0.35674843
157	0x3e661853	0.22470216
158	0xbe595843	-0.21225075
159	0x3e26ffc5	0.16308506
160	0x3e53bd67	0.2067772
161	0xbe479b34	-0.19492799
162	0xbe765767	-0.24056779
163	0x3e162aaa	0.14664713
164	0x3e8008e7	0.25006792
165	0x3e4f95b3	0.2027195
166	0x3dc2d01a	0.095123485
167	0xbd85cdea	-0.065334156
168	0x3eb1a3ac	0.34695184
169	0x3de16dfe	0.110073075
170	0xbd9c34ba	-0.07627244
171	0xbece4a16	-0.40290898
172	0x3c60cf96	0.013721367
173	0xbe52c6e6	-0.20583686
174	0xbdad2bcf	-0.084556215
175	0xbe015fee	-0.1263425
176	0xbd1e9af3	-0.03872199
177	0xbe195a96	-0.14975962
178	0xbe46a63b	-0.1939935
179	0xbed0e6bf	-0.40801045
180	0x3e201ebb	0.15636723
181	0x3dd1f9d7	0.10252731
182	0xbe836971	-0.25666383
183	0x3e7e82a3	0.24854521
184	0xbd29e052	-0.041473694
185	0xbe59c364	-0.21265942
186	0x3dcb32cd	0.09921799
187	0x3d70a3cb	0.058749955
188	0xbe9d40a5	-0.30713382
189	0xbdcedc8d	-0.101006605
190	0xbda42af1	-0.08016003
191	0xbddc45a6	-0.10755472
192	0x3f0c929d	0.54911214
193	0x3e8da193	0.27662334
194	0xbe5f8b82	-0.21830562
195	0x3ec49ddf	0.38401696
196	0x3e2fd976	0.17172799
197	0xbdd55938	-0.10417408
198	0xbe386b3d	-0.18009658
199	0x3eef9c09	0.46798733
200	0x3e50807a	0.2036151
201	0x3eadcc7b	0.3394507
202	0xbe33c643	-0.175561
203	0x3f5b31af	0.85622686
204	0xbda6b166	-0.08139305
205	0xbeaa7926	-0.33295554
206	0x3d4cf1b4	0.050035194
207	0xbe71e14f	-0.23621105
208	0xbe0dbaee	-0.1384084
209	0x3e20a884	0.15689284
210	0x3cf224ca	0.029558558
211	0xbe412f21	-0.18865635
212	0x3e8d54dc	0.27603805
213	0xbd668ba1	-0.056285504
214	0x3e795668	0.24349368
215	0xbda56a5e	-0.080769286
216	0xbdadd3f3	-0.08487692
217	0x3eb78720	0.3584528
218	0x3eb22290	0.34791994
219	0xbe6599bd	-0.22421928
220	0x3edac9ed	0.42732182
221	0x3d4ccbcf	0.049999055
222	0x3e1b746e	0.15181133
223	0x3c885fca	0.016647238
224	0x3e86650a	0.26248962
225	0x3df576cd	0.1198555
226	0x3e0c8f1f	0.13726471
227	0xbb78ad03	-0.003794492
228	0x3e29d289	0.16584219
229	0x3e7eecfe	0.24895093
230	0xbe78d5d7	-0.24300323
231	0x3ed712d1	0.42006543
232	0xbdfff019	-0.12496967
233	0xbe07568f	-0.13216613
234	0x3ecab3e7	0.3959038
235	0xbdc12e80	-0.09432697
236	0x3e90d7b7	0.28289577
237	0xbd0f2c6a	-0.034954466
238	0xbe0669e8	-0.13126338
239	0x3f4931de	0.78591716
240	0x3f24a7f9	0.64318806
241	0x3e349e18	0.17638433
242	0xbd622458	-0.05521044
243	0x3cefd23b	0.02927505
244	0x3f0c7c9f	0.54877657
245	0xbe0b1b7c	-0.13584703
246	0x3f0f692d	0.5601986
247	0x3ea38e6b	0.31944594
248	0x3f02bfcf	0.51073927
249	0xbe98aeba	-0.29820806
250	0xbea6cf69	-0.32580116
251	0x3f13c513	0.57722586
252	0xbe3ca4bf	-0.1842222
253	0xbd0ae217	-0.033907022
254	0xbce4bd9e	-0.027922448
255	0x3ecdb9f1	0.40180925

lstm.bias_hh_l0 f4 [256]
0	0x3f785f52	0.9702045
1	0x3e5894fd	0.21150585
2	0xbd85cb5a	-0.06532927
3	0x3d99e9df	0.075153105
4	0x3edb7c69	0.42868355
5	0x3b97772e	0.0046223616
6	0x3e8ab658	0.27092242
7	0xbe715220	-0.23566484
8	0x3e0775f7	0.13228594
9	0x3e239c40	0.15977573
10	0xbe38adc0	-0.1803503
11	0x3f4e355f	0.8055019
12	0xbd50df4d	-0.050994206
13	0x3e322a7b	0.17399018
14	0x3e836460	0.25662518
15	0xbed3055c	-0.41215026
16	0xbf2fa53a	-0.6861149
17	0x3dc9d929	0.09855873
18	0xbee637a9	-0.4496434
19	0xbe86d0b9	-0.26331118
20	0xbdb0b918	-0.08629054
21	0x3ede6d6a	0.4344285
22	0x3f0a3956	0.5399374
23	0x3f1e7a5c	0.61905456
24	0x3f4487bd	0.7676962
25	0x3c529ae9	0.012854316
26	0x3df44eff	0.1192913
27	0xbd9ec0e7	-0.07751637
28	0x3eb8016b	0.35938582
29	0x3c97eae4	0.018544622
30	0xbe311476	-0.17292961
31	0x3de89f77	0.113585405
32	0xbcd29b02	-0.02570868
33	0x3eeb0d5f	0.4590864
34	0x3f03ee14	0.51535153
35	0x3f260b62	0.6486112
36	0xbd1fe46f	-0.03903621
37	0x3f0881fa	0.5332333
38	0xbefd4f2f	-0.49474475
39	0x3e46dcf6	0.19420227
40	0x3e9cbb0c	0.30611455
41	0x3ebb25ec	0.3655237
42	0x3c3fe23f	0.011711656
43	0x3d7258ea	0.059166826
44	0x3eb38fe9	0.35070732
45	0xbe2e6534	-0.17030793
46	0x3eb993ac	0.36245477
47	0x3ee44b94	0.44588912
48	0x3f14572e	0.57945526
49	0x3e827b3b	0.25484642
50	0x3f207012	0.62671006
51	0x3f86433d	1.048927
52	0xbe1ad291	-0.15119387
53	0xbe4f16a7	-0.20223485
54	0x3e9a6f33	0.30162963
55	0x3e0a10a2	0.13482907
56	0xbd8430eb	-0.06454643
57	0x3e1b2eeb	0.15154617
58	0xbe70a408	-0.23500073
59	0x3e363f68	0.17797625
60	0x3d32b5de	0.043630473
61	0xbea6f41d	-0.3260812
62	0xbe58ee0c	-0.21184558
63	0x3cbd0cc3	0.023077374
64	0xbbf0ae48	-0.0073449947
65	0x3e9989b2	0.29987866
66	0x3d0aaf45	0.033858556
67	0x3e8e3223	0.27772626
68	0x3e33b002	0.1754761
69	0x3e03fe85	0.1289006
70	0xbd75fdff	-0.060056683
71	0x3d124585	0.03571083
72	0xbcb62d42	-0.022238377
73	0x3decda6c	0.11565098
74	0x3b7a3b71	0.0038182402
75	0xbe588d0a	-0.21147552
76	0xbd1a4eb8	-0.03767273
77	0xbd91d2c8	-0.071202815
78	0x3ec1df5c	0.37865722
79	0x3dc32431	0.09528387
80	0xbe075c91	-0.13218905
81	0x3d01f5e6	0.031728648
82	0xbdb81532	-0.08988418
83	0x3ca0afa2	0.019614998
84	0x3d7b94fc	0.06142138
85	0xbc968536	-0.018374067
86	0x3edbe6da	0.42949563
87	0x3e328cbf	0.17436503
88	0x3e86ad6b	0.26304182
89	0xbd26d1a2	-0.040727265
90	0xbd3e3aae	-0.04644268
91	0xbccf4247	-0.025300158
92	0x3e991421	0.2989817
93	0xbdbed116	-0.09317224
94	0xbd296ac5	-0.04136159
95	0x3e879a32	0.2648483
96	0x3e503ed2	0.20336464
97	0x3eafbf05	0.34325424
98	0x3eedc20e	0.46437114
99	0x3eb56ff1	0.35436967
100	0xbd81779a	-0.0632164
101	0xbbf2976b	-0.0074033043
102	0xbd99805d	-0.074951865
103	0x3ce2c957	0.027683897
104	0x3ec54fc8	0.3853743
105	0x3ebc8550	0.3682046
106	0xbc661af5	-0.014044513
107	0x3e0dd059	0.1384901
108	0xbd2ecb1a	-0.04267416
109	0xbd2b49d1	-0.041818444
110	0xbd5f8308	-0.05456832
111	0xbe1d80cd	-0.15381165
112	0xbe17d7f9	-0.14828481
113	0x3e35f591	0.17769457
114	0x3e35a2bd	0.17737861
115	0x3d9f7921	0.077867754
116	0x3daf44f0	0.08558071
117	0xbc321217	-0.010868571
118	0x3dcc2966	0.099688336
119	0x3e1aea74	0.151285
120	0x3dfc9b89	0.123343535
121	0xbdea16bc	-0.114301175
122	0x3e04c40f	0.12965415
123	0x3d4346ac	0.04767482
124	0x3e20f312	0.15717724
125	0x3dc602ae	0.0966848
126	0xbb3164a4	-0.0027068043
127	0x3de20a01	0.11037064
128	0x3deb39d9	0.11485643
129	0xbe6b36a1	-0.22970058
130	0xbe3c3b04	-0.18381888
131	0xbea212b9	-0.3165491
132	0xbe2db140	-0.16962147
133	0x3bbcdc9b	0.005763603
134	0xbc894af8	-0.01675938
135	0xbeaee13f	-0.34156224
136	0xbe9e045e	-0.30862707
137	0x3e08ad49	0.13347353
138	0x3d951b5d	0.0728061
139	0x3e326b6d	0.17423792
140	0x3e7639c0	0.24045467
141	0x3e495584	0.19661528
142	0xbd91587e	-0.07096957
143	0xbe8d31de	-0.27577108
144	0xbe379a1c	-0.17929882
145	0x3d85ac3b	0.06526991
146	0xbebcad58	-0.36851
147	0xbe3920bb	-0.18078892
148	0x3e2a9c6b	0.16661231
149	0xbd27aab1	-0.04093427
150	0xbe65261a	-0.22377816
151	0x3ec8ed73	0.3924366
152	0x3e91490b	0.2837604
153	0xbd4f320a	-0.05058483
154	0xbe8c705e	-0.2742948
155	0x3efdd575	0.49576917
156	0x3e85b668	0.26115727
157	0x3e9fd5d7	0.31217834
158	0xbe6451f5	-0.22296889
159	0x3da1c2c8	0.0789848
160	0x3e65d195	0.2244323
161	0xbe46364e	-0.19356653
162	0xbe445657	-0.19173561
163	0x3d09cee1	0.03364456
164	0x3da06cb1	0.07833231
165	0x3dc811e7	0.097690396
166	0x3d9e80a0	0.07739377
167	0x3dd70aa8	0.105000794
168	0x3e9e17fc	0.30877674
169	0xbb3e47e0	-0.002903454
170	0xbe7ae4de	-0.24501368
171	0xbf08f0d6	-0.53492486
172	0xbe37d487	-0.17952166
173	0xbe03add3	-0.12859277
174	0xbb971641	-0.004610807
175	0xbd2a46df	-0.041571494
176	0x3d811763	0.06303289
177	0xbe48ff38	-0.19628608
178	0x38d8fcd5	0.00010346776
179	0xbed3a85b	-0.41339383
180	0x3eb41db8	0.35178924
181	0x3e12c84b	0.14334218
182	0xbe1999ec	-0.15000123
183	0x3e800cda	0.25009805
184	0x3c36d5d6	0.011159381
185	0xbd4fa2df	-0.050692435
186	0x3e4ed60b	0.20198838
187	0xbd42a1fd	-0.047517765
188	0xbe340e71	-0.17583634
189	0xbdf288f3	-0.11842527
190	0xbe4317de	-0.19052073
191	0x3e014ef3	0.12627773
192	0x3f1aec01	0.60516363
193	0x3d863688	0.0655337
194	0xbda4105c	-0.08010933
195	0x3ee80a29	0.45320252
196	0x3eadbeaf	0.33934543
197	0xbe113a84	-0.14182478
198	0xbe5dbbc7	-0.21653663
199	0x3f0bf80d	0.5467537
200	0x3d83bae5	0.06432132
201	0x3eb38d3d	0.35068694
202	0xbe64dbe9	-0.22349514
203	0x3f60cceb	0.8781268
204	0xbd5df9f4	-0.054193452
205	0xbe5d8989	-0.21634497
206	0x3d7920ec	0.060822412
207	0xbdaeada0	-0.0852921
208	0x3b2edc5b	0.0026681635
209	0x3d38c13d	0.04510616
210	0xbc9cfb19	-0.019162701
211	0xbdc85c69	-0.09783251
212	0x3e7b1802	0.24520877
213	0x3daf9fd3	0.08575406
214	0x3d45f8e3	0.04833306
215	0xbde83e20	-0.113399744
216	0x3d4ca657	0.04996332
217	0x3ea019d0	0.31269693
218	0x3e9b8dfe	0.3038177
219	0xbe5128df	-0.20425747
220	0x3ede53bd	0.43423262
221	0x3df1d786	0.11808686
222	0x3e834d66	0.25644988
223	0x3bad8e6c	0.005296519
224	0x3ea0937d	0.31362525
225	0x3e42ce45	0.19023998
226	0x3cc3534f	0.023843436
227	0xbd25b088	-0.040451556
228	0xbd0fccf4	-0.035107568
229	0x3e7d7a49	0.2475368
230	0xbe56fb88	-0.20994389
231	0x3ea24b5f	0.3169813
232	0xbdee79fc	-0.116443604
233	0xbe12392e	-0.14279625
234	0x3eca8e05	0.39561477
235	0xbdb8e5c2	-0.09028198
236	0x3e80c32f	0.25148913
237	0xbe06be13	-0.13158445
238	0xbe3e1199	-0.185614
239	0x3f6fc976	0.9366678
240	0x3f4f77e1	0.81042296
241	0x3dd7860d	0.10523615
242	0xbe2bf83e	-0.16793916
243	0x3dd6b726	0.104841515
244	0x3ef7a5d5	0.48368707
245	0xbd9ac504	-0.07557109
246	0x3f1417ef	0.5784902
247	0x3ea3e5e7	0.3201134
248	0x3ea887b9	0.32916048
249	0xbeb2a538	-0.34891677
250	0xbe606f5a	-0.21917477
251	0x3f1e36a9	0.61802155
252	0x3adfaffd	0.0017065998
253	0xbdfb2a94	-0.122639805
254	0xbd3f69bf	-0.046731707
255	0x3eb596f1	0.35466722

lstm.weight_ih_l1 f4 [256, 64]
0	0xbea55dda	-0.32298166
1	0x3ee22e5a	0.44175988
2	0xbc2335c3	-0.009961548
3	0x3e4f3989	0.20236792
4	0xbe7f2fde	-0.24920604
5	0xbc67e6ff	-0.014154195
6	0xbe59c986	-0.21268281
7	0x3e9dfad0	0.30855417
8	0x3d9c8e3c	0.076443166
9	0xbe11a315	-0.14222367
10	0xbeae8c07	-0.34091207
11	0x3f075fa4	0.5288031
12	0xbe92bcda	-0.28659707
13	0xbe490c24	-0.19633538
14	0x3de5893b	0.11207815
15	0xbaecdfc6	-0.0018072061
16	0x3ec736f6	0.3890912
17	0x3e89e913	0.26935634
18	0x3f57075d	0.8399561
19	0x3ed38784	0.41314328
20	0xbdaa4524	-0.08313969
21	0x3d8d8a9d	0.06911204
22	0xbdb05e8a	-0.08611782
23	0x3ea6d33e	0.3258304
24	0x3a4bda6b	0.0007776382
25	0x3ddc59a4	0.10759285
26	0x3c2b56c7	0.010457701
27	0xbebeda0a	-0.37275726
28	0xbe1c04a4	-0.15236145
29	0xbfa79744	-1.3093038
30	0x3c9ce2f3	0.019151187
31	0xbd87d04b	-0.066315256
32	0xbd86b397	-0.06577223
33	0x3e0bb7e6	0.1364437
34	0x3e16e0ed	0.1473424
35	0xbec86eff	-0.39147183
36	0x3d62cdd7	0.055372085
37	0xbebf5909	-0.37372616
38	0xbf61b7b8	-0.8817096
39	0x3df55aa9	0.11980183
40	0xbeea2a7a	-0.45735532
41	0xbcd0eb3f	-0.0255028
42	0xbd8406dc	-0.06446621
43	0x3e369d36	0.17833409
44	0xbe4e4178	-0.20142162
45	0x3f72586b	0.94666165
46	0xbd9355f6	-0.0719413
47	0x3d03f79f	0.03221857
48	0x3cec6ca7	0.028860403
49	0x3e270808	0.16311657
50	0xbeb0b947	-0.34516355
51	0x3de6b8b3	0.11265697
52	0xbe546e1c	-0.20745128
53	0xbedb6e01	-0.42857364
54	0x3d57578e	0.052573733
55	0x3e05a904	0.13052756
56	0x3eb1f878	0.3475988
57	0x3ecb355d	0.3968915
58	0xbf42b78f	-0.7606134
59	0x3eb2f85a	0.34955102
60	0x3def4746	0.11683516
61	0x3ebd4a19	0.36970595
62	0xbd6e107e	-0.058121197
63	0xbd8369fa	-0.06416698
64	0x3ed2a86c	0.4114412
65	0x3e897d42	0.26853377
66	0xbea9deb1	-0.33177713
67	0xbd3fd0e0	-0.046830058
68	0x3ddb96ed	0.10722146
69	0x3e97fb18	0.29683757
70	0x3debcb00	0.115133286
71	0x3ee2007f	0.44141003
72	0x3ebc0b75	0.3672749
73	0x3e40b657	0.18819557
74	0xbee0e304	-0.439232
75	0xbf0c56c9	-0.54819924
76	0xbe4ded3a	-0.20110026
77	0x3d186bef	0.03721231
78	0xbf0d7916	-0.5526289
79	0x3deed351	0.11661399
80	0xbe3ddf38	-0.18542182
81	0x3ea959c2	0.33076292
82	0x3c3c1e86	0.011481887
83	0x3f113b9d	0.5673159
84	0x3e7435a6	0.2384859
85	0x3e80e5da	0.25175363
86	0xbf176ca5	-0.59150153
87	0x3d838dc8	0.06423527
88	0xbe972234	-0.29518282
89	0x3e0e43ef	0.13893102
90	0xbe843ef1	-0.2582927
91	0xbef3c43f	-0.4761066
92	0x3d69cb14	0.057078436
93	0xbd81363c	-0.063091725
94	0x3f44da96	0.76896036
95	0xbea7292e	-0.32648605
96	0xbf0e8567	-0.55672306
97	0xbe85bcb1	-0.26120523
98	0xbeacb251	-0.33729795
99	0x3f08ec82	0.5348588
100	0xbeeb3f41	-0.45946696
101	0x3f2551ae	0.6457776
102	0x3db9cfbe	0.09072827
103	0xbec1496d	-0.37751332
104	0xbf2392d0	-0.63895893
105	0xbf10093a	-0.5626408
106	0xbea225af	-0.31669375
107	0xbd9f25d2	-0.077708855
108	0x3e13a174	0.14417058
109	0x3e19a9cf	0.15006183
110	0x3e3cf4e3	0.18452792
111	0x3e522f91	0.20525958
112	0x3e0bc8dc	0.1365084
113	0x3eb7752e	0.35831589
114	0xbd1ec716	-0.038764082
115	0x3ea3a8f7	0.31964847
116	0x3e156a4e	0.14591333
117	0xbe2ded0b	-0.16984956
118	0xbcb0ff54	-0.021606125
119	0x3e43a2b1	0.1910503
120	0xbe11288e	-0.14175627
121	0x3eece874	0.46271098
122	0xbf014f1c	-0.50511336
123	0xbeb83394	-0.3597685
124	0xbdc2f869	-0.09520037
125	0xbe13ef40	-0.14446735
126	0x3e3633a9	0.17793144
127	0xbe1b9db9	-0.15196885
128	0xbf71f548	-0.94514894
129	0xbce411b1	-0.027840467
130	0xbe26af15	-0.16277726
131	0x3e44fa02	0.19235995
132	0x3e18aece	0.14910433
133	0x3e70f346	0.23530301
134	0xbea9c7de	-0.331603
135	0xbb995a41	-0.0046799486
136	0x3ec2e7b6	0.38067406
137	0xbd443aaa	-0.04790751
138	0xbf079bb5	-0.52971965
139	0x3eff2669	0.49833992
140	0x3d897434	0.06711617
141	0xbe8cc89a	-0.27496797
142	0x3dd5beb1	0.10436762
143	0x3e335c4e	0.1751568
144	0x3e211b8f	0.15733169
145	0x3e43f60b	0.19136827
146	0x3db8363c	0.089947194
147	0x3d47699a	0.048684694
148	0x3e4811ec	0.19538087
149	0x3edee4f1	0.43534043
150	0x3e74495b	0.23856108
151	0xbd62045d	-0.055179942
152	0x3e553782	0.20821956
153	0xbceceef4	-0.028922535
154	0xbcdfbf34	-0.027312852
155	0xbee47dbb	-0.44627175
156	0x3e81b148	0.25330567
157	0xbe47e163	-0.19519572
158	0xbd215bc5	-0.03939416
159	0x3e356b3c	0.17716688
160	0xbebe1b38	-0.3713014
161	0x3de6c4af	0.11267983
162	0xbdae5a49	-0.08513314
163	0xbb72aca1	-0.0037029164
164	0x3d7e50b5	0.062088687
165	0xbecfabd8	-0.40560794
166	0xbdafe194	-0.085879475
167	0xbd0049ee	-0.031320505
168	0xbf30da52	-0.6908313
169	0xbded5d43	-0.11590054
170	0xbd9ba70c	-0.07600221
171	0x3ed0fa81	0.4081612
172	0xbe99c70b	-0.3003467
173	0x3f7179d6	0.9432653
174	0xbd1611d2	-0.03663809
175	0xbe0fc50d	-0.14040013
176	0xbebcfc22	-0.36911112
177	0x3e818a62	0.2530089
178	0x3d39fc0f	0.045406397
179	0x3c88b3a6	0.016687226
180	0x3d58dbc2	0.052943952
181	0x3e791dca	0.2432777
182	0x3e16a8d3	0.14712839
183	0xbcae95b0	-0.021311611
184	0xbce78cd6	-0.028265398
185	0xbd6cb49e	-0.057789437
186	0xbe2c9061	-0.16851951
187	0x3e0006b6	0.1250256
188	0xbbd0352e	-0.0063539958
189	0xbe834412	-0.2563787
190	0x3cff325f	0.031151948
191	0xbd865adc	-0.06560299
192	0xbe890d99	-0.26768187
193	0x3ee8c968	0.4546616
194	0xbfb16aa9	-1.3860675
195	0xbe7180f2	-0.23584345
196	0x3e36e30c	0.17860049
197	0x3e887265	0.26649776
198	0x3f1d77f2	0.6151115
199	0x3edb12de	0.42787832
200	0x3f75dca0	0.9603977
201	0x3e244ec8	0.16045678
202	0xbec59ddf	-0.3859701
203	0xbf75bda2	-0.9599248
204	0xbf698e02	-0.9123231
205	0xbf113222	-0.5671712
206	0xbdae357e	-0.085062966
207	0x3f6b48f0	0.9190817
208	0x3e20c118	0.1569866
209	0xbf0e2668	-0.55527353
210	0x3e95871b	0.2920464
211	0x3f92abe8	1.1458712
212	0x3e4ae1f6	0.1981276
213	0x3d9dbc35	0.07701913
214	0xbf1c3562	-0.61018956
215	0x3f4b8601	0.7950135
216	0x3f1e5b5a	0.6185814
217	0x3f0a7ba0	0.54094887
218	0xbe41c0b0	-0.1892116
219	0xbedf5a43	-0.43623552
220	0x3b269c47	0.0025422738
221	0x3eab6177	0.33472797
222	0xbdc02119	-0.09381313
223	0x3ea07e0f	0.31346175
224	0xbf53ed63	-0.827841
225	0x3e73e99d	0.23819585
226	0xbeedcff1	-0.4644771
227	0x3e1b8238	0.15186393
228	0xbf087bb7	-0.53313774
229	0x3f5282ef	0.8223104
230	0x3e8b749f	0.27237412
231	0xbe0caf04	-0.13738638
232	0xbec2b9db	-0.3803242
233	0x3da90408	0.08252722
234	0x3d151fd2	0.0364073
235	0x3f4c19e9	0.79727036
236	0xbd72d976	-0.05928942
237	0x3f9ab003	1.2084965
238	0x3f9df178	1.2339315
239	0xbc92f33f	-0.017938254
240	0x3e925c17	0.28585884
241	0xbc6e1a6d	-0.014532668
242	0x3d22fb55	0.03979047
243	0x3e555474	0.20832998
244	0xbe387f43	-0.18017296
245	0x3edee7aa	0.4353612
246	0x3d1863b1	0.037204448
247	0x3df77dff	0.12084579
248	0x3d64050c	0.055668876
249	0x3f48a79c	0.7838075
250	0xbfcde417	-1.6085232
251	0xbf32174a	-0.69566786
252	0xbf8e61d1	-1.1123601
253	0xbf18b43e	-0.5965003
254	0x3f039b49	0.5140882
255	0xbecf9b30	-0.40548086

lstm.weight_hh_l1 f4 [256, 64]
0	0x3f1f064e	0.62118995
1	0x3ca3b2c4	0.019982703
2	0x3ea006d4	0.3125521
3	0x3e4ab088	0.19793904
4	0xbcf74597	-0.03018455
5	0xbe10675f	-0.14101933
6	0x3e0f4034	0.13989335
7	0x3d7cb769	0.06169835
8	0xbd65d5b9	-0.056112025
9	0xbe9000c6	-0.2812559
10	0xbea68f74	-0.3253132
11	0xbd7aa322	-0.06119073
12	0x3e3522ce	0.17689058
13	0x3e297f5d	0.16552491
14	0x3f0f7029	0.5603052
15	0xbd312996	-0.04325255
16	0xbf077fd4	-0.52929425
17	0xbf0eb261	-0.55740935
18	0x3de875e8	0.11350614
19	0x3e2799e7	0.16367303
20	0x3ebe65f5	0.37187162
21	0x3eb7a92d	0.35871258
22	0xbe3e80f0	-0.18603873
23	0x3e01f80e	0.12692282
24	0xbe2643bf	-0.1623678
25	0x3ea76652	0.32695252
26	0x3f15ea59	0.5856071
27	0xbcfb9342	-0.030709866
28	0xbe0fdafd	-0.14048381
29	0xbe0cc6c6	-0.13747701
30	0xbef0787b	-0.4696692
31	0x3ba68412	0.005081662
32	0xbdf60e60	-0.120144606
33	0xbca37c0d	-0.019956613
34	0xbe8aa47c	-0.27078617
35	0xbcd66d31	-0.026175113
36	0xbf061ea2	-0.5239049
37	0xbe9e9d1f	-0.3097925
38	0x3d112068	0.035431296
39	0x3d382e70	0.04496616
40	0xbec40662	-0.3828612
41	0x3e4b4b29	0.1985289
42	0x3ca8c443	0.020601397
43	0xbe57b0b2	-0.21063498
44	0x3d17551f	0.036946412
45	0x3d4cd611	0.050008837
46	0x3ce7ec55	0.028310934
47	0x3d55600d	0.052093554
48	0xbea6f8c9	-0.32611683
49	0x3e313914	0.1730693
50	0x3e9cda60	0.30635357
51	0x3e0327ac	0.12808102
52	0x3e2b49a7	0.16727315
53	0xbe518e56	-0.20464453
54	0xbd82180a	-0.06352241
55	0xbd1e9afe	-0.03872203
56	0x3ea4d6ae	0.32195038
57	0x3e70b764	0.23507458
58	0x3e648f0a	0.2232019
59	0xbe145e69	-0.1448914
60	0xbe1a889a	-0.15091172
61	0x3e36229d	0.17786641
62	0xbe5dbcfd	-0.21654125
63	0x3e77ab9e	0.2418656
64	0xbe776a85	-0.24161728
65	0xbe797d11	-0.24364115
66	0x3d5b289e	0.053505532
67	0xbf663059	-0.8991752
68	0x3e8bd484	0.27310574
69	0xbedb0f32	-0.4278503
70	0x3dbf0215	0.09326569
71	0xbe7f89af	-0.24954866
72	0x3d0c0825	0.034187455
73	0xbe42c3c8	-0.19019997
74	0xbe4a4965	-0.1975456
75	0x3ed622aa	0.41823322
76	0x3df8e167	0.12152367
77	0xbe92312d	-0.28553143
78	0xbf671a89	-0.90274864
79	0xbe1510ab	-0.1455714
80	0xbc2f61d5	-0.010704477
81	0x3e8f64ec	0.28006685
82	0xbe9279aa	-0.28608447
83	0xbe5cf175	-0.21576484
84	0x3d3f934c	0.046771333
85	0x3dc51f19	0.09625072
86	0xbec549a0	-0.38532734
87	0xbea184e8	-0.31546712
88	0x3dd2ae74	0.102871805
89	0x3da03986	0.07823472
90	0xbdb4531f	-0.088049166
91	0xbe089148	-0.1333667
92	0x3ece33f2	0.40274006
93	0xbe5c312e	-0.21503136
94	0x3e031301	0.12800218
95	0x3d5701f5	0.0524921
96	0x3e610bbb	0.21977131
97	0xbf0819f3	-0.53164595
98	0x3dfed861	0.12443615
99	0xbef19842	-0.47186476
100	0x3ec62c0e	0.38705486
101	0xbe97b5de	-0.2963094
102	0x3d171558	0.03688559
103	0x3e1c3698	0.15255201
104	0xbf215363	-0.63017863
105	0x3da551ae	0.0807222
106	0x3ccea7ac	0.025226437
107	0x3f1c9724	0.6116812
108	0xbdc0dd8c	-0.09417257
109	0xbda1afb6	-0.07894842
110	0x3e013aaf	0.12620042
111	0xbe84619d	-0.25855723
112	0xbe2dd67f	-0.16976355
113	0xbca49cad	-0.02009424
114	0xbd199f2b	-0.03750531
115	0xbee6e07b	-0.4509314
116	0x3e472c2e	0.19450447
117	0x3e08d48d	0.13362332
118	0x3ded463d	0.115856625
119	0x3e14ee29	0.14543976
120	0xbd7776a1	-0.060415868
121	0xbd4c30c3	-0.04985119
122	0xbe17490b	-0.14773957
123	0xbe9c2c68	-0.3050263
124	0x3cd5cc50	0.0260984
125	0x3e4b01b1	0.19824864
126	0xbd0f856d	-0.035039354
127	0x3eb94a76	0.36189622
128	0x3e16e068	0.14734042
129	0xbcc76806	-0.024341594
130	0x3f3e936e	0.7444371
131	0x3d9abd93	0.0755569
132	0x3cc4b2d0	0.024011046
133	0xbeb42fd0	-0.35192728
134	0xbee18637	-0.4404771
135	0xbf0e8f58	-0.55687475
136	0x3e5ea745	0.21743496
137	0xbc4c7f72	-0.012481557
138	0xbe6d84ef	-0.23195241
139	0xbd6fa14b	-0.05850343
140	0x3ee7d1f1	0.4527736
141	0xbaff94d2	-0.0019499308
142	0x3e935f04	0.2878343
143	0xbeaa6950	-0.33283472
144	0x3dc717bd	0.097213246
145	0x3e25f6f4	0.16207486
146	0x3e801133	0.25013122
147	0xbe4c304d	-0.199403
148	0x3f0c5af5	0.5482629
149	0xbc8f3d14	-0.017485179
150	0xbe87cddc	-0.26524246
151	0x3d9ad100	0.07559395
152	0x3e85fb07	0.2616808
153	0x3cee48fc	0.029087536
154	0xbda97021	-0.0827334
155	0xbc58ce7f	-0.013232826
156	0x3df4070f	0.11915409
157	0xbdc2521f	-0.094883196
158	0x3dcf2b88	0.10115725
159	0xbe0c64a5	-0.13710268
160	0xbe902e56	-0.28160352
161	0x3be50caa	0.006990035
162	0x3e63d70d	0.22250004
163	0xbef59144	-0.4796239
164	0xbd8410d7	-0.064485244
165	0xbe85d32e	-0.2613768
166	0x3de87aeb	0.1135157
167	0x3e23cf5f	0.15997075
168	0xbe98c79a	-0.29839784
169	0xbdba25d8	-0.09089249
170	0xbe583220	-0.21112871
171	0xbd38d1e7	-0.045122053
172	0x3e2ded28	0.16984999
173	0xbda50b4a	-0.08058794
174	0x3c6f5887	0.014608509
175	0x3e68c8ec	0.22732896
176	0x3e95581d	0.29168788
177	0xbf1b5dcf	-0.60690016
178	0x3e1f1cf7	0.15538393
179	0xbea96c3d	-0.33090392
180	0x3e46c448	0.19410813
181	0x3f04377b	0.51647156
182	0xbe1d98eb	-0.15390365
183	0x3e8bd925	0.27314106
184	0xbe82948f	-0.25503966
185	0x3e7b0bea	0.24516264
186	0xbeaf67f4	-0.34258997
187	0xbec2fbfa	-0.38082868
188	0x3e9c231f	0.30495545
189	0xbe7fb214	-0.24970275
190	0xbd24431d	-0.040103067
191	0xbdd03f15	-0.10168282
192	0xbe8326b8	-0.25615478
193	0xbf024205	-0.5088199
194	0x3ead5f30	0.33861685
195	0xbd11fb6b	-0.03564016
196	0xbe7c66f4	-0.24648649
197	0xbf41e597	-0.7574095
198	0xbe268c03	-0.16264348
199	0xbd37ac81	-0.044842247
200	0xbddde8af	-0.108353965
201	0xbe48f5ba	-0.19624987
202	0x3e0049b6	0.12528118
203	0x3f5d895b	0.8653771
204	0xbdca2c00	-0.098716736
205	0x3eacf62a	0.33781558
206	0xbeb113b7	-0.34585354
207	0xbebb9022	-0.36633402
208	0x3f08a662	0.5337888
209	0xbdf55d45	-0.119806804
210	0x3e62ac36	0.22136006
211	0x3e514c38	0.20439231
212	0xbf02dc7f	-0.511177
213	0x3eb3c349	0.35109928
214	0xbe8585ac	-0.26078546
215	0x3e75c1f2	0.23999766
216	0x3e880d3c	0.26572597
217	0x3ee92272	0.45534092
218	0xbb6b9605	-0.0035947573
219	0xbe1f0e62	-0.1553283
220	0x3eee79d4	0.46577322
221	0xbda21013	-0.07913222
222	0x3de74c63	0.112938665
223	0x3cab5681	0.020915272
224	0x3f1f804f	0.6230516
225	0xbf02612a	-0.5092951
226	0x3ec10c69	0.3770478
227	0xbdcef6ee	-0.10105692
228	0x3e8f2f17	0.27965614
229	0xbe7d95a7	-0.24764119
230	0xbe450285	-0.19239242
231	0x3f6da860	0.92835045
232	0x3cb13005	0.021629343
233	0x3f037859	0.5135551
234	0x3eff7e8c	0.49901235
235	0x3f24edb7	0.64425224
236	0xbd204646	-0.039129518
237	0x3e43ff59	0.19140376
238	0xbebcda91	-0.36885503
239	0x3e53cb9e	0.20683143
240	0x3cde19e4	0.027111955
241	0xbe922807	-0.28546163
242	0x3df8b78d	0.121443845
243	0x3e843187	0.25819036
244	0x3d987979	0.07445044
245	0x3d89fee9	0.067380734
246	0x3ef80d91	0.4844785
247	0x3e1cb63a	0.15303889
248	0x3e9c64ba	0.30545598
249	0x3f1af48b	0.6052939
250	0x3f012fd8	0.5046363
251	0xbe4302d0	-0.19044042
252	0x3ee1c496	0.44095296
253	0xbd130db4	-0.03590174
254	0x3d94ab7a	0.07259269
255	0x3eeb6b4f	0.45980307

lstm.bias_ih_l1 f4 [256]
0	0x3e54c79f	0.20779274
1	0x3d0b719c	0.034043893
2	0x3e2613f6	0.16218552
3	0x3e2aed5c	0.16692108
4	0xbe01a496	-0.12660441
5	0xbe99e6f6	-0.30059022
6	0x3d89ec15	0.06734482
7	0xbb7c4ebe	-0.0038499082
8	0x3e1826b9	0.14858522
9	0xbd6c9fd5	-0.057769615
10	0x3e0d7db7	0.13817488
11	0x3ccd8c0c	0.025091194
12	0x3cba5753	0.022746718
13	0xbe0a7674	-0.13521749
14	0x3c46b770	0.012128696
15	0xbdfaf0fa	-0.12252994
16	0x3df6d711	0.120527394
17	0x3d512a8c	0.051065966
18	0xbdb87f6a	-0.09008677
19	0x3dd44be3	0.10366037
20	0x3df06d17	0.11739557
21	0x3e37efd5	0.17962582
22	0xbe7086de	-0.23488948
23	0x3ea1e40e	0.31619304
24	0xbc926446	-0.01787008
25	0xbe06dc00	-0.13169861
26	0xbdc50643	-0.09620335
27	0xbd7eea87	-0.06223538
28	0xbde76c66	-0.11299972
29	0x3e4786c0	0.19484997
30	0x3d9842fc	0.07434651
31	0xbc311b21	-0.010809691
32	0x3d47f4f5	0.048817594
33	0x3e12e697	0.14345776
34	0x3e8f31fa	0.27967817
35	0x3e3b498b	0.18289773
36	0x3e59fd45	0.21288021
37	0xbd6bb2ff	-0.05754375
38	0x3e5f5e20	0.2181325
39	0xbd13bba6	-0.036067627
40	0xbd5536e8	-0.052054316
41	0xbdd193db	-0.10233279
42	0x3e9dcdf1	0.30821183
43	0x3e8561c0	0.2605114
44	0xbdc38b3b	-0.095480405
45	0xbe19baaf	-0.1501262
46	0x3eb77fd4	0.35839713
47	0x3dcfbd8c	0.10143575
48	0x3e52fea0	0.20604944
49	0xbd101808	-0.035179168
50	0x3d874f06	0.066068694
51	0x3eb709d1	0.35749677
52	0xbd02253d	-0.031773794
53	0x3dbb5e71	0.09148873
54	0x3d37354e	0.04472857
55	0xbdc570c3	-0.09640648
56	0x3d2eef74	0.04270883
57	0x3e6b927d	0.230051
58	0xbd503a8e	-0.050837092
59	0x3dd61720	0.104536295
60	0xbe4f0d9a	-0.20220032
61	0xbd4bedd0	-0.049787343
62	0x3d0375c5	0.032094736
63	0x3eba4be0	0.36386013
64	0x3cf85424	0.030313559
65	0x3da6523c	0.08121154
66	0xbce64ffe	-0.028114315
67	0xbce7aa14	-0.028279342
68	0x3dbab3c3	0.09116318
69	0x3e4960a6	0.19665775
70	0xbdbb6a51	-0.091511376
71	0x3e650864	0.22366482
72	0x3ed2b095	0.41150346
73	0xbddea5dc	-0.10871479
74	0x3deda63e	0.11603974
75	0xbd17c7cc	-0.037055776
76	0xbd420545	-0.047368307
77	0xbda3ac4a	-0.07991846
78	0x3e00b8f0	0.12570548
79	0x3d1261f2	0.03573794
80	0x3de9f43f	0.11423539
81	0xbd486e15	-0.048933107
82	0xbc4c716b	-0.012478213
83	0x3d1b8d6d	0.03797667
84	0x3c95bcb7	0.018278463
85	0x3e8258bc	0.25458324
86	0x3b3336be	0.0027345861
87	0x3b072541	0.002062157
88	0xbdfac0f2	-0.12243833
89	0x3d454b0e	0.04816728
90	0x3e2a03ec	0.16603059
91	0x3ce593d4	0.028024592
92	0xbdb9d80e	-0.09074412
93	0x3de7b4bd	0.1131377
94	0xbcdde1e4	-0.027085252
95	0xbd1eb9ed	-0.03875153
96	0xbe0c9302	-0.13727954
97	0x3cab3c26	0.020902704
98	0x3e1ea9b9	0.15494432
99	0x3da751a9	0.08169872
100	0xbadf9d92	-0.0017060509
101	0x3e32fc01	0.17478944
102	0xbe68437e	-0.22681996
103	0xbe2d1171	-0.16901185
104	0x3e050863	0.1299148
105	0xbc92710c	-0.01787617
106	0x3d85cae5	0.0653284
107	0x3d193e4a	0.03741292
108	0x3d6019c7	0.054712083
109	0x3dbddfb0	0.09271181
110	0x3e9413c5	0.28921333
111	0x3e1dc399	0.15406646
112	0xbd2ddfc0	-0.042449713
113	0xbe17b9ff	-0.14817046
114	0x3db8d51f	0.090250246
115	0x3a9fd147	0.0012193107
116	0xbd922572	-0.071360484
117	0x3e1af34e	0.15131876
118	0x3d61e091	0.055145804
119	0x3e1043e8	0.14088404
120	0xbdd37585	-0.103251494
121	0xbbed1054	-0.0072346125
122	0xbc82f892	-0.015987668
123	0x3dff6731	0.12470854
124	0xbdca872d	-0.09889064
125	0x3d8ade8c	0.06780729
126	0x3e17b4b4	0.14815027
127	0x3d83a245	0.06427435
128	0x3c4ae99a	0.0123847965
129	0x3dc550a7	0.09634524
130	0xbdff6504	-0.12470439
131	0x3e351fc6	0.17687902
132	0xbe0d3c6c	-0.1379258
133	0xbd2882fb	-0.041140538
134	0xbe27b82f	-0.16378854
135	0xbd9dc95e	-0.07704423
136	0xbde4ce2f	-0.11172139
137	0xbe369cf1	-0.17833306
138	0x3d188268	0.03723374
139	0x3dd2552c	0.102701515
140	0xbe46fca7	-0.19432317
141	0xbd9269d0	-0.071490884
142	0x3db66009	0.08905036
143	0x3e800131	0.2500091
144	0xbd5baf6d	-0.053634096
145	0xbe25eea4	-0.16204315
146	0xbddc8c2b	-0.107689224
147	0x3cdd9766	0.027049731
148	0xbda24e76	-0.079251215
149	0x3d95a203	0.07306292
150	0xbe01f258	-0.12690103
151	0x3d78c9f0	0.060739458
152	0xbd5098f9	-0.050927136
153	0x3d1f21ab	0.038850468
154	0xbe2889b6	-0.16458783
155	0xbe1d4864	-0.15359646
156	0xbd7de729	-0.06198803
157	0xbd200085	-0.039062995
158	0x3e0602fb	0.13087074
159	0xbc09e2b0	-0.008415863
160	0xbe1013b8	-0.14070022
161	0xbddac5da	-0.106822684
162	0xbe1d0634	-0.15334398
163	0xbd18b7b0	-0.037284553
164	0xbe2102a3	-0.15723662
165	0x3c5f556c	0.013631206
166	0xbb535f8e	-0.0032253
167	0x3e221845	0.1582957
168	0xbe42db24	-0.19028908
169	0xbd1da7cb	-0.038490098
170	0x3e5321e9	0.20618404
171	0xbd80db05	-0.06291775
172	0xbdc8b05f	-0.09799265
173	0x3d010b33	0.03150482
174	0xbe42fe6c	-0.19042367
175	0x3d6d5dab	0.057950657
176	0x3dc6d83f	0.097092144
177	0x3e27ce26	0.16387233
178	0x3def05ae	0.11671005
179	0x3dead0f8	0.11465639
180	0xbd2769e4	-0.04087247
181	0xbe2ce146	-0.1688281
182	0x3d57bc97	0.052670088
183	0x3d3ea87e	0.046547405
184	0x3d857670	0.06516731
185	0x3e17b3a6	0.14814624
186	0xba06663c	-0.00051269284
187	0x3e59e97e	0.21280476
188	0x3db93eb9	0.090451665
189	0x3d85bfbd	0.06530712
190	0xbddaf875	-0.10691921
191	0x3a1205df	0.0005570333
192	0xbd1966fa	-0.03745172
193	0xbd33f1b2	-0.04393167
194	0x3d34d5dd	0.04414927
195	0x3e63db1b	0.22251551
196	0x3c4ecd34	0.012622166
197	0xbe1395d0	-0.14412618
198	0x3dbc664f	0.09199201
199	0x3e2bae2b	0.16765659
200	0xbd998f57	-0.07498043
201	0x3dfa4103	0.12219431
202	0xbd3fa546	-0.046788476
203	0xbd9c3b1f	-0.07628464
204	0x3bb74598	0.005593013
205	0xbda8a8d4	-0.082353264
206	0x3e09d684	0.13460737
207	0xbe298737	-0.16555487
208	0xbdc77e65	-0.09740905
209	0x3dfe3875	0.12413112
210	0xbe653da2	-0.22386792
211	0xbd916f0d	-0.071012594
212	0xbd1e5bee	-0.03866189
213	0x3e8448ab	0.2583669
214	0x3dd7153a	0.105020955
215	0xbd9fff7a	-0.078124
216	0x3d8761fd	0.06610487
217	0xbd762ae3	-0.060099494
218	0x3d160e8c	0.036634967
219	0xbdec4bfd	-0.11537931
220	0x3e6a8aa4	0.2290445
221	0x3e4c01e7	0.199226
222	0x3dce0cb5	0.100610174
223	0x3d9bcc79	0.076073594
224	0xbcf33e89	-0.029692905
225	0x3e2f3320	0.17109346
226	0xbd815257	-0.06314533
227	0x3e8c1907	0.27362844
228	0x3e1d49b5	0.15360148
229	0x3cfe8ba1	0.03107244
230	0x3cebb1af	0.02877125
231	0x3d514f8e	0.05110126
232	0x3dd3741b	0.1032488
233	0xbceb0bf8	-0.02869223
234	0x3da2a205	0.07941059
235	0xbe08a808	-0.13345349
236	0x3d0dc8cc	0.034615323
237	0x3e06cc3a	0.13163844
238	0x3d875964	0.06608847
239	0xbdecfd0e	-0.11571704
240	0xbd4be0ce	-0.049774937
241	0x3c8ca3e6	0.017167997
242	0x3cdefa71	0.02721903
243	0x3df9dda5	0.122004785
244	0x3c67d822	0.014150651
245	0xbd8a9b1a	-0.067678645
246	0x3d6c5445	0.057697553
247	0x3e1dd3f5	0.15412886
248	0xbd177865	-0.03698005
249	0x3e34c760	0.1765418
250	0x3da09bbe	0.078422055
251	0xbe23508c	-0.15948695
252	0xbcf8ec97	-0.030386252
253	0x3d07f695	0.033194143
254	0xbd4f2a9e	-0.050577752
255	0xbcd759a1	-0.026287856
